checkpoint.pth (torch, 53527 bytes, 12 tensors)

_embedding.weight f4 [64, 16]
000000 00 00 00 00 00 00 00 00 00 00 00 00 00 00 00 00
       0.0 0.0 0.0 0.0
000010 00 00 00 00 00 00 00 00 00 00 00 00 00 00 00 00
       0.0 0.0 0.0 0.0
000020 00 00 00 00 00 00 00 00 00 00 00 00 00 00 00 00
       0.0 0.0 0.0 0.0
000030 00 00 00 00 00 00 00 00 00 00 00 00 00 00 00 00
       0.0 0.0 0.0 0.0
000040 e4 99 62 b8 e8 6e 9c bc a1 6f 91 b9 b2 20 0d 3c
       -5.402592e-05 -0.019095853 -0.00027739725 0.008613752
000050 c1 c7 19 bb fe 16 53 b8 97 be bf 3c 15 f5 4e 3d
       -0.002346501 -5.0327733e-05 0.02340631 0.050526697
000060 16 a0 9e bb 06 05 aa ba 0c 62 7e 3c bd dd 93 3a
       -0.004840861 -0.0012971468 0.015526306 0.0011281293
000070 8c 24 d3 ba 14 5f 18 3c b7 1f d5 3c 50 61 f3 3c
       -0.0016108914 0.009300012 0.0260161 0.029709488
000080 05 cb 98 3e be c4 a3 3e 2c ee fd bb 84 31 30 bd
       0.29842392 0.3198604 -0.0077493396 -0.04301597
000090 af 8b 89 b9 e5 68 f8 ba 09 90 53 3e 78 df d1 be
       -0.0002623475 -0.001895216 0.20660414 -0.40990806
0000a0 d8 1a 02 be 8c 85 ca bc 10 49 21 be b4 b2 e2 bd
       -0.12705553 -0.024721883 -0.15750527 -0.11069241
0000b0 5d 88 aa 3b c7 41 c5 be a4 ae fa bd 39 e3 64 bd
       0.005204244 -0.38526747 -0.12240341 -0.05588076
0000c0 37 74 f3 38 03 1b 41 b9 05 d7 fd 36 65 c6 8a b9
       0.0001160879 -0.00018415977 7.565019e-06 -0.00026469227
0000d0 a0 88 04 39 f9 36 8e 34 11 09 a8 ba 56 14 0d bb
       0.00012639398 2.648956e-07 -0.0012820085 -0.0021527014
0000e0 35 89 77 39 4f a3 2f 38 fa 97 5b ba 87 db 00 b9
       0.00023606869 4.1875344e-05 -0.0008376833 -0.00012288812
0000f0 b2 a4 93 38 ba 0d f8 b9 96 46 5b ba 94 0f 96 ba
       7.040183e-05 -0.00047312473 -0.0008364705 -0.0011448734
000100 a9 6d 5a bd 6b 4e 2c bf ac cc 0b bb d7 42 f4 3c
       -0.053327236 -0.67307156 -0.002133171 0.029817028
000110 31 16 99 3d 68 24 b9 bb 30 98 44 be 73 61 84 3e
       0.07474936 -0.005650092 -0.1919868 0.25855598
000120 26 9b 55 3e c0 32 a4 3b 88 85 f9 3c b8 d2 15 3d
       0.20859966 0.0050109327 0.03045918 0.03657791
000130 24 17 04 3c c3 18 62 3e e3 83 54 3e 28 38 dd 3c
       0.008062158 0.22079758 0.20753436 0.027004316
000140 c7 0e 14 be f7 39 56 bf 6a e2 42 3b 3e f5 09 3e
       -0.14458762 -0.836822 0.0029737004 0.13472459
000150 e3 76 4b 3c 8a c5 aa 3a 49 f0 8a be 5f db 9d 3e
       0.0124184815 0.0013028842 -0.27136448 0.3083143
000160 aa 07 0a 3e e0 78 28 3c 7e 42 9d be 60 93 8f bb
       0.13479486 0.010282725 -0.30714792 -0.004381582
000170 be 96 af 3b 28 38 b0 3e ff f8 77 ba 76 a4 8a 3c
       0.005358546 0.34417844 -0.00094594056 0.016924124
000180 5f 9f 3e 3e db 39 97 be a1 e3 f3 bb 8f 39 ab 3e
       0.18615483 -0.29536328 -0.007442907 0.3344235
000190 1d 79 ee bc f2 91 9f ba b2 0a 03 3e 96 24 f5 3e
       -0.029110486 -0.0012174232 0.12797049 0.47879475
0001a0 ad c6 bb bc f2 ed e4 bc 31 fe 82 be 0b 09 5e bd
       -0.022921884 -0.027945492 -0.25584558 -0.054207843
0001b0 51 cb 34 bc d7 9b 50 3e 4c a2 0d bf 63 2c 09 bf
       -0.0110348025 0.20371948 -0.5532577 -0.53583354
0001c0 e9 d8 be 3d 27 14 0f 3f b3 8c 47 bc 20 47 11 bd
       0.09318716 0.55890125 -0.012179541 -0.03546822
0001d0 1f 7a 1a bd fa e9 f1 bb a2 b9 dd 3e 7b ec f8 3d
       -0.03771412 -0.0073826285 0.4330569 0.1215448
0001e0 32 bb 59 be c0 72 66 bd 82 a2 cf 3e 0d ee ad 3c
       -0.21262816 -0.056261778 0.4055367 0.021231676
0001f0 bb d2 d0 bc 6a 30 24 3e 15 55 c4 3d d1 b7 bb 3d
       -0.02549111 0.16034093 0.095865406 0.091659196
000200 a1 f1 20 3e a8 72 87 be 12 c7 f3 bb 9b d7 55 bd
       0.15717174 -0.26454663 -0.0074395025 -0.05220757
000210 48 1b d9 3c 46 3b ef bb 43 d6 05 bc b6 6a 84 bd
       0.026502267 -0.007300767 -0.00816876 -0.06465666
000220 a6 4c 90 bd f0 50 d7 bc 1c 48 11 3f e6 da 24 bd
       -0.070458695 -0.026283711 0.56750655 -0.04024782
000230 98 3c 06 3c d3 a4 76 bf 73 77 72 3f 78 e1 58 bc
       0.008193158 -0.9634525 0.94713515 -0.01323735
000240 90 7b dd 3c b6 83 27 bd b6 ce f8 ba 2c ee 47 3c
       0.027036458 -0.040897094 -0.0018982503 0.012202781
000250 d4 11 e7 b9 18 24 cc ba 28 cd 1a 3d e5 96 9e 3d
       -0.00044073036 -0.0015574722 0.03779331 0.077436246
000260 05 07 bb bc 6d 11 18 bc 71 fd af 3d 72 23 c2 bb
       -0.022830496 -0.009281498 0.08593262 -0.0059246356
000270 1c c5 c8 ba f3 89 d9 bc 62 fb d6 3d bb d0 63 ba
       -0.0015317532 -0.026555037 0.10497166 -0.0008690466
000280 31 85 96 b9 ce fd b0 39 3c 85 b0 37 d5 9e 10 ba
       -0.00028709465 0.00033758435 2.1042877e-05 -0.0005516832
000290 8b 73 1c 39 46 09 c2 36 2c 97 16 bb 95 1d 54 bb
       0.00014920362 5.78273e-06 -0.002297829 -0.0032366265
0002a0 0c 98 c8 39 4c bd 92 38 9b ec 42 ba bd 18 1c b8
       0.00038260256 6.997082e-05 -0.00074357697 -3.7216338e-05
0002b0 e5 0c c5 38 22 8b 47 b9 11 2e b6 ba 71 90 06 bb
       9.396094e-05 -0.0001902995 -0.0013899227 -0.002053287
0002c0 8d 4c 20 be 3c 34 bd bd da f4 8c 3b 23 0b ec bc
       -0.15654202 -0.092384785 0.0043016495 -0.028813904
0002d0 e9 9a 60 bc 44 79 67 3b b4 76 1a bc 0b fd a2 3e
       -0.013708808 0.0035320083 -0.009427715 0.3183368
0002e0 75 37 ab bc 04 3d 6b 3c f6 a5 5a 3e 7f 06 59 3a
       -0.020900467 0.014357809 0.21352372 0.0008278861
0002f0 88 0c 63 bb da 80 83 3e e6 74 12 be cd a9 b7 3e
       -0.003464492 0.25684243 -0.14302406 0.35871735
000300 73 ba 18 be 20 57 11 be 8d f9 be 3b f4 60 88 bd
       -0.14914875 -0.14193392 0.0058280886 -0.06659117
000310 8e d7 04 3c ad 3b e9 3a ec 67 1c be cb f9 12 bd
       0.008108033 0.0017794274 -0.15274018 -0.035882752
000320 5f 01 0d 3d 42 d0 9b 3c f4 f4 cf bc 90 7a 03 3d
       0.034425136 0.019020204 -0.025385357 0.032099307
000330 af 44 30 3b 2f 9a 96 3d 2d b4 0f 3e 9f 79 22 3e
       0.0026896407 0.07353627 0.14033575 0.15866707
000340 25 6d eb bd 00 c5 ff bd 41 67 9e 3b 3d c9 8d bd
       -0.11495427 -0.12488747 0.004834086 -0.06923149
000350 92 82 55 3c b7 38 6e 3a e5 50 4b be 86 20 ce bd
       0.013031619 0.00090874307 -0.19855078 -0.10064797
000360 42 36 3a 3d f5 44 95 3c 02 aa 95 3d 1f aa 3f 3d
       0.0454619 0.018221358 0.07307817 0.0467931
000370 a7 f1 9b 3b a3 57 19 be 17 0b 0a 3e 58 e7 82 bd
       0.004759032 -0.14974837 0.13480793 -0.063917816
000380 e9 59 e7 bc 79 d9 c6 be 7a da e1 3a cb a2 95 3d
       -0.028241115 -0.38837793 0.0017231249 0.07306441
000390 a8 35 1d 3c c4 f7 1d 3a 86 d9 0d be bf eb 05 3e
       0.009595312 0.00060259947 -0.1385251 0.13078211
0003a0 09 13 8e 3d fc 7a b3 3b 99 5a 98 bd 28 cc ce bb
       0.069372244 0.0054773074 -0.07439155 -0.0063109584
0003b0 01 fc 9e 3b df 47 18 bd 14 e0 65 3c 6e e4 0c be
       0.0048518186 -0.037177917 0.014030475 -0.13759014
0003c0 b1 3e 48 bc db b3 4e be ad 93 a2 3a c3 d3 37 bc
       -0.012221978 -0.20185797 0.001240363 -0.0112199215
0003d0 47 ca 18 bb 88 85 97 3a 76 71 42 bc 49 0f 09 3d
       -0.0023313926 0.0011560181 -0.0118678715 0.033461843
0003e0 4f 77 34 3c 39 0e 46 3b 20 1f 50 3d e4 f1 3e bc
       0.0110147735 0.003022088 0.050810933 -0.011654351
0003f0 95 63 61 3b 20 2a 4f be 3d ca 94 3e a4 68 5e 3e
       0.003439163 -0.20230913 0.29060546 0.21719605

_rnn.weight_ih_l0 f4 [96, 16]
000000 2c 35 38 b6 9f 47 f5 b8 ca 50 b9 35 9c ea 4e 36
       -2.7449087e-06 -0.00011695851 1.3807087e-06 3.0832953e-06
000010 6b 1d 9d 37 86 b8 6b 35 3b 00 46 b9 4c 5c d8 b8
       1.8729557e-05 8.781284e-07 -0.00018882837 -0.00010316874
000020 c8 4f 76 38 bc 72 22 37 a6 aa 21 b8 64 56 35 37
       5.8725273e-05 9.682666e-06 -3.854432e-05 1.0808555e-05
000030 7b cc ea 36 b4 3d 4e 39 25 01 1b 39 6d a0 e9 b7
       6.997548e-06 0.00019668677 0.00014782378 -2.7850469e-05
000040 be 1e 2d 3e 64 e0 00 bd ce 87 c0 bb 49 1f 61 3c
       0.16906258 -0.031463996 -0.005875564 0.013740369
000050 09 30 e7 3a 5b 15 29 bb 50 a9 d0 3d 12 82 1a bd
       0.0017638217 -0.0025800082 0.10188544 -0.0377217
000060 48 59 8a bd 20 ee b8 bc 35 11 90 bc 03 91 87 bd
       -0.0675531 -0.022574484 -0.01758633 -0.06619456
000070 45 e5 38 ba 58 45 a8 bd 6f d7 d2 3d da 49 c6 3c
       -0.0007053207 -0.08216351 0.10294997 0.024205137
000080 48 ba b1 ba 05 8d 8e bb 8c ba 35 39 0e fd e3 ba
       -0.0013559544 -0.004350307 0.00017330999 -0.0017394142
000090 e4 2a 8e 3a 9b 05 8f 38 77 b7 3a bc c9 b7 0f bc
       0.0010846523 6.8198155e-05 -0.0113962805 -0.008771845
0000a0 63 cf 34 3b 55 3d 55 3a e5 bd 74 bb 41 79 0b 3a
       0.0027589432 0.00081344444 -0.0037344631 0.00053204974
0000b0 75 a8 d9 39 a2 dd cd 3c 31 9c 56 3b cb b6 00 ba
       0.00041514976 0.025130097 0.0032746906 -0.0004910051
0000c0 72 7e 26 b8 28 47 ac b8 89 d9 35 36 c8 ea b0 b5
       -3.9695246e-05 -8.214853e-05 2.7097724e-06 -1.3181352e-06
0000d0 da 81 50 37 6f 1f a5 35 9e a1 25 b9 8b 90 0b b8
       1.24279995e-05 1.2302606e-06 -0.00015795833 -3.32748e-05
0000e0 1a 65 43 38 e4 82 4e 37 36 ea 00 b7 f2 de 9f 37
       4.658578e-05 1.2309032e-05 -7.683926e-06 1.9058094e-05
0000f0 6d 45 9e 36 30 c1 c5 39 c7 71 97 38 0f f4 12 b8
       4.716849e-06 0.00037718704 7.221434e-05 -3.503641e-05
000100 96 87 2d b7 52 45 0b bb cb f0 c3 37 f5 8f 04 39
       -1.0343172e-05 -0.0021251035 2.335794e-05 0.00012642129
000110 7c 5a b2 39 4b ea b0 37 8e 20 4a bb a8 2b 94 ba
       0.00034018222 2.1089936e-05 -0.0030842158 -0.0011304514
000120 9b 60 85 3a 77 ed 3f 39 70 b0 17 ba 49 fc 74 39
       0.0010175885 0.00018303642 -0.0005786484 0.00023363637
000130 a4 fd f2 38 8f ad 91 3b b4 d9 1b 3b 89 4e 09 ba
       0.000115867035 0.0044457386 0.0023780884 -0.0005237838
000140 f7 9a 92 bb 99 fe ce bc ef 93 8b 39 b0 6d dd bb
       -0.0044740397 -0.025267886 0.00026622365 -0.0067574605
000150 97 75 1d 3b dc e0 da 38 90 c2 a0 bc 92 23 20 bc
       0.0024026388 0.000104369334 -0.019624025 -0.009774106
000160 cc d3 80 3b 7c 81 ae 3a 98 f5 73 bb b0 c4 08 bb
       0.003931498 0.0013313736 -0.0037225243 -0.0020869188
000170 d2 29 5e 3a 3b ae 4b 3c 00 8d 77 3c 5e c6 b8 3c
       0.00084748596 0.0124316765 0.015109301 0.022555526
000180 d1 ca f9 3c 89 fa 33 bc 9a c5 bc ba bf 24 d4 3b
       0.030492218 -0.010985025 -0.0014402152 0.006474107
000190 b0 c2 4e ba d4 f2 0c ba 9c e2 d3 3c a6 b3 e3 3b
       -0.0007887287 -0.00053767604 0.025864892 0.006948906
0001a0 ca b5 44 bc 42 5b b8 bb 9b b5 f2 bb 2f e1 4a bc
       -0.0120062325 -0.005626113 -0.007406903 -0.0123827895
0001b0 77 08 4d ba ad bd 57 3c dd a4 76 3c 82 70 9c 3c
       -0.0007821391 0.013167781 0.015053955 0.019096617
0001c0 90 df 65 3a d5 38 b9 ba c7 f1 08 b6 0a d6 ac 39
       0.000876897 -0.0014131317 -2.0406312e-06 0.00032965868
0001d0 db e6 73 39 98 76 34 37 c3 20 15 bb cb 06 83 ba
       0.00023260286 1.0756448e-05 -0.0022755123 -0.0009996531
0001e0 50 26 00 3a 82 72 5e 38 d2 52 db b9 7c 88 97 b8
       0.00048885215 5.303557e-05 -0.0004183264 -7.225663e-05
0001f0 8e 8b bd 38 ec 90 af 3b 00 57 29 3b 3c c8 cd b8
       9.0382164e-05 0.005357852 0.002583921 -9.812458e-05
000200 ae 38 7b 3c 17 2f 2a 3c 7d 0d 0a ba 37 bd 0d 3b
       0.015333338 0.010387204 -0.0005266292 0.0021627673
000210 f0 75 1c bb 7b 6a 2d b9 65 fe be 3c b6 3b ad 3b
       -0.0023874007 -0.00016538233 0.023314664 0.005286659
000220 fc cb 3e bc c3 30 29 bb f5 ac 65 3b 6f 6e b5 bb
       -0.011645313 -0.0025816418 0.0035045717 -0.0055368464
000230 40 3f 3c ba fc 74 60 bc 94 9c 0f bb 85 48 01 bc
       -0.0007181056 -0.013699766 -0.0021913396 -0.007890825
000240 4d c3 60 b7 2e d2 4b b6 7a 4c 58 35 45 48 28 36
       -1.3396912e-05 -3.0371698e-06 8.057756e-07 2.5076017e-06
000250 fa 04 9a 36 6f 45 86 34 5e 61 4b b8 69 f6 fc b7
       4.590137e-06 2.5009965e-07 -4.848965e-05 -3.0155485e-05
000260 4c fd 9f 37 ed 56 8e 36 7f 63 83 b7 2b b8 47 37
       1.9072228e-05 4.2420493e-06 -1.5662748e-05 1.1904204e-05
000270 a1 39 b5 35 b4 f3 ca 38 35 f3 6c b4 f8 18 45 b8
       1.3502323e-06 9.677504e-05 -2.2067691e-07 -4.6991714e-05
000280 17 4b c6 b8 22 e7 82 b8 eb 48 19 37 6f 18 b1 36
       -9.455362e-05 -6.241935e-05 9.136488e-06 5.2778555e-06
000290 ff ba 67 38 fa aa 98 36 60 21 40 ba 5d 0d 12 ba
       5.5248845e-05 4.5498573e-06 -0.0007329192 -0.00055714493
0002a0 c8 de 6a 39 ba c9 42 38 bf 46 3b b9 a7 fc d1 38
       0.00022398971 4.6441077e-05 -0.00017860065 0.00010012957
0002b0 e5 c1 c3 37 7e ab ac 3a b2 04 8a 39 4a 32 06 ba
       2.33361e-05 0.0013173667 0.0002632491 -0.0005119188
0002c0 fa aa 6f 39 88 42 b0 ba 92 81 a3 38 f0 9d af 39
       0.0002285651 -0.0013447562 7.79658e-05 0.00033496274
0002d0 33 93 34 3a f0 a6 23 38 c4 15 00 bc 1f 97 ae bb
       0.00068883895 3.90177e-05 -0.007817689 -0.0053280736
0002e0 b2 6e 14 3b d1 f6 e5 39 29 88 13 bb be 68 5e 3a
       0.0022648987 0.00043862176 -0.0022511578 0.0008484236
0002f0 8a 94 88 39 69 bc 8d 3c 4d 96 47 3b 5c e9 97 bb
       0.00026050612 0.017301755 0.0030454576 -0.004635973
000300 69 d2 6e 3d ca f8 23 3d bc b3 1a bb 49 9f 06 b9
       0.05830613 0.040032186 -0.0023605665 -0.00012838574
000310 a2 b6 4f bc 96 e8 d4 b9 0a d8 d0 3d 32 3d d6 3b
       -0.01267782 -0.0004060908 0.10197456 0.006538057
000320 65 7c 56 bd 70 e5 44 bc 06 27 8a 3c b9 ac f8 bc
       -0.052364726 -0.012017593 0.016864311 -0.030355798
000330 dc 64 53 bb 84 37 87 3b 01 37 95 3c ae 8b d3 3c
       -0.0032256162 0.004126491 0.018214704 0.02582344
000340 7e 55 71 b3 06 39 a8 34 af 60 57 b0 18 7c a0 33
       -5.618994e-08 3.1333929e-07 -7.835394e-10 7.473153e-08
000350 1e 57 67 b3 df d5 7b 31 82 f7 b2 34 50 55 b6 34
       -5.386311e-08 3.6646879e-09 3.333517e-07 3.3962215e-07
000360 43 a3 82 b3 09 7a f9 b1 55 f0 a2 33 35 83 1a 32
       -6.083294e-08 -7.2607276e-09 7.587429e-08 8.993813e-09
000370 d5 41 9b b2 eb e6 e9 34 a8 9c a3 b4 24 8f b4 34
       -1.8074312e-08 4.3567647e-07 -3.0475098e-07 3.363176e-07
000380 c2 6e e0 3c df 77 18 3b 1d 7c af ba ae be bc 3b
       0.027396563 0.0023264808 -0.0013388429 0.0057600355
000390 f3 7c 80 b9 d9 1e e6 b9 15 0e a4 3c 9b 1d 8b 3b
       -0.00024507157 -0.00043892002 0.020026246 0.0042454726
0003a0 3b 84 23 bc 33 70 9a bb 21 03 c1 b8 a8 d1 18 bc
       -0.009980257 -0.004713082 -9.20354e-05 -0.00932733
0003b0 62 3e 4b ba ee 68 d0 3c 5f 75 f7 3b f6 7e 9e 3b
       -0.0007753131 0.02544066 0.0075518335 0.0048369123
0003c0 f8 42 73 b5 e7 70 e3 b6 44 66 15 33 e1 36 2c 35
       -9.0622007e-07 -6.7782707e-06 3.4784776e-08 6.415485e-07
0003d0 9c 8e a3 34 24 67 eb 32 97 b3 33 b6 e3 b3 90 36
       3.0464878e-07 2.7404504e-08 -2.6777614e-06 4.312476e-06
0003e0 40 d7 5c 35 47 9d 58 34 f7 ce aa b5 63 c9 81 b4
       8.2269617e-07 2.0173785e-07 -1.2726222e-06 -2.417465e-07
0003f0 2f dc 82 33 7b c2 1e 37 9b 8e d2 b4 08 4a 38 36
       6.093648e-08 9.462815e-06 -3.9219307e-07 2.7461228e-06

_rnn.weight_hh_l0 f4 [96, 32]
000000 de ce 6c 36 cc 3e 80 37 c2 31 3a 39 e0 fc b1 b7
       3.5287153e-06 1.5288031e-05 0.00017756879 -2.1217798e-05
000010 d3 e1 be b7 65 4c 8d 39 a9 51 3d 38 7b 80 19 b8
       -2.2754923e-05 0.00026950534 4.5137163e-05 -3.65977e-05
000020 85 12 35 38 9a e3 7e b6 d1 ad b4 b7 f2 41 c5 38
       4.317101e-05 -3.798143e-06 -2.1538612e-05 9.405975e-05
000030 d3 27 33 b8 ca 1b 83 b2 bc 90 c3 37 a6 5c 7d b6
       -4.2714015e-05 -1.5263044e-08 2.3313209e-05 -3.7753866e-06
000040 e2 d0 45 36 d5 3f 3b 38 e1 86 6f b6 3d 28 72 b7
       2.9476873e-06 4.4643723e-05 -3.5692285e-06 -1.4433693e-05
000050 c2 46 47 39 1f 3d 93 b8 92 3d ea b7 0b 65 18 b5
       0.00019004478 -7.020891e-05 -2.7923645e-05 -5.677145e-07
000060 63 71 7f 38 62 43 ed b6 ee 38 80 33 40 3d c9 b8
       6.0902337e-05 -7.070995e-06 5.97082e-08 -9.5958356e-05
000070 41 31 0e b8 d6 1d 9a 38 50 eb 1e 38 f0 2a e4 b8
       -3.390131e-05 7.3488496e-05 3.7889287e-05 -0.00010879885
000080 a6 a8 98 3b 91 da 2a 3e 57 72 84 bc d2 9a ae ba
       0.0046587763 0.16684939 -0.016167803 -0.0013321287
000090 5e 01 bb bc 97 4b 6e bd e6 fb 40 3e cd 91 a4 bc
       -0.0228278 -0.058177557 0.18846092 -0.020089054
0000a0 fd fa 28 3c a5 68 a4 ba eb d0 9b bb e6 e0 ad 3c
       0.0103137465 -0.0012543394 -0.0047551296 0.021225404
0000b0 33 53 63 3c 20 60 ae b7 a9 84 1e be 00 e3 e5 39
       0.013874817 -2.0787178e-05 -0.15480293 0.00043847412
0000c0 48 e2 87 3a c3 7f 35 bb e8 f5 85 ba e5 3c 07 3e
       0.001036712 -0.002769456 -0.001022038 0.13206823
0000d0 22 17 8c bd 5b 96 05 3e ed 60 cd bd 24 18 10 3c
       -0.0684035 0.13045637 -0.10028253 0.008794818
0000e0 1e 63 b0 3d f4 ee 4f bd 89 bb 79 3a ea 49 80 3c
       0.08612655 -0.050764993 0.0009526541 0.015660245
0000f0 15 29 44 be 42 55 38 3e a5 90 5e 3c 84 18 51 bd
       -0.19156297 0.18001273 0.013584291 -0.05104877
000100 98 ed d0 38 cb 3f 1e bc 8c 09 9e 3c bf cd 04 bb
       9.962468e-05 -0.009658764 0.019291662 -0.0020264236
000110 65 6b 5e 39 b2 17 d4 3c b1 c0 d2 3a 8f d8 00 bb
       0.00021211577 0.025890205 0.0016079155 -0.001966033
000120 7c 9d 0c bb 3a b8 da b9 33 ce 16 bb 39 3a 03 3c
       -0.0021456173 -0.0004171746 -0.0023011088 0.008009487
000130 eb 1a b9 bb a6 91 15 38 37 2f 52 3b 35 32 cb b9
       -0.005648961 3.5660014e-05 0.00320716 -0.00038756584
000140 9b 53 8d 39 97 d8 95 3b a8 97 d7 b9 b7 f9 8a bb
       0.00026955907 0.0045729387 -0.00041120988 -0.004241194
000150 d8 06 ab 3c d4 e9 82 bc c0 cf 2c 3b 12 a8 02 ba
       0.020877287 -0.015980639 0.0026368946 -0.0004984151
000160 cc ff dd bb 90 ba a2 3c 7b 25 98 37 be 8c 17 bc
       -0.006774878 0.01986435 1.8137265e-05 -0.009249864
000170 82 c1 c2 ba b3 70 ab 3b 50 d7 6a 3b 2a 63 6f 3b
       -0.0014858695 0.0052319407 0.0035833903 0.0036527612
000180 c6 36 24 b5 03 14 fb 38 b1 cc 44 39 e8 9f a6 b7
       -6.1174467e-07 0.0001197234 0.0001876827 -1.9863204e-05
000190 1c ad 12 36 ba b4 7f 39 85 19 89 39 0e 8c 8b b7
       2.1856458e-06 0.00024386021 0.0002614969 -1.663531e-05
0001a0 1a 26 b4 37 3a 22 4b b6 32 dd 95 b7 6c f1 a8 38
       2.1475415e-05 -3.026928e-06 -1.7865186e-05 8.0558326e-05
0001b0 f0 05 d1 b8 b3 d0 60 b3 15 b3 0c b9 a5 24 78 b6
       -9.9670026e-05 -5.2343875e-08 -0.00013418154 -3.697621e-06
0001c0 e4 c2 10 36 88 32 32 38 62 2c 3f b6 9c 97 06 39
       2.1571113e-06 4.2485568e-05 -2.8487052e-06 0.00012835715
0001d0 e5 58 2d 39 78 61 1a b9 0f c7 a5 b8 ff 0a 3c b5
       0.00016531681 -0.00014722894 -7.904891e-05 -7.005146e-07
0001e0 d7 54 6e 37 ae a3 03 39 d8 b1 34 b5 b8 bc b1 b8
       1.4205659e-05 0.00012554109 -6.731402e-07 -8.475169e-05
0001f0 4c 88 83 b9 2d 6f 9f 39 30 b2 f6 37 7f 5a 76 b8
       -0.00025087816 0.00030409676 2.940846e-05 -5.873525e-05
000200 54 73 12 39 94 39 ca 3a bb 8e 72 3b 0b fb e5 b9
       0.00013966608 0.0015428537 0.0037011344 -0.00043865325
000210 c4 c3 26 ba ae c7 a2 3b 22 63 4c 3b cf 78 82 ba
       -0.0006361569 0.0049676513 0.0031187017 -0.0009954217
000220 a2 92 8c 3a 79 13 c4 b8 bc bd 01 ba 1e 5f 0a 3b
       0.0010724852 -9.3496354e-05 -0.0004949232 0.0021113823
000230 2b 5c 14 bb d0 1f b3 35 c6 9c 9f ba 1b dc 99 b8
       -0.0022637944 1.3345798e-06 -0.001217746 -7.336606e-05
000240 88 77 9b 38 cd 73 83 3a ff 6f b1 b8 a5 81 f7 3a
       7.4132404e-05 0.0010029018 -8.4608786e-05 0.0018883242
000250 1d de 38 3b 68 d1 f0 ba 70 17 1b bb 11 82 62 39
       0.0028208562 -0.0018372955 -0.0023665093 0.00021601493
000260 1d f0 37 3b 1c cf 85 ba 05 f3 a2 37 a0 4d d1 ba
       0.0028066703 -0.0010208818 1.942507e-05 -0.0015968569
000270 31 2b 42 bb af 0a 76 3b 61 01 8a 3a b6 71 70 bb
       -0.0029627795 0.003754299 0.0010528975 -0.003668887
000280 2c 2d c4 39 2e a2 7d 3c 9a b8 b2 3c ab 6f 0e bb
       0.0003741769 0.015480561 0.02181654 -0.002173404
000290 7b dd ba b9 d1 c6 b8 3c b4 27 dd 3c 2a d2 35 bb
       -0.000356417 0.02255574 0.026996471 -0.0027743676
0002a0 b0 a8 02 bc d3 68 3b ba 4d bd 73 bb 14 c3 36 3c
       -0.007974789 -0.0007149104 -0.003719169 0.011154909
0002b0 fe 4a 37 3c 5b 61 77 38 81 b6 79 bc 63 d2 be b9
       0.011187313 5.898006e-05 -0.015241266 -0.00036396374
0002c0 a3 6f be 39 1b 35 c6 3b 16 ce 34 ba d6 c0 5b 3c
       0.000363228 0.006048811 -0.0006897164 0.013412675
0002d0 4d 8e 6e 3c 46 f0 30 bc 2c 40 dc bb 19 c9 0c ba
       0.014560294 -0.010799473 -0.006721517 -0.0005370542
0002e0 01 be 2b bc 08 31 13 3d 8c 41 37 39 c0 46 16 bc
       -0.010482312 0.03593543 0.00017476658 -0.009172142
0002f0 12 ef d4 bc 29 93 db 3c c0 3b 8e 3b 8e 0b a6 3c
       -0.025992904 0.02680357 0.004340619 0.020269182
000300 b2 23 88 3a ed c7 fe 3d 6e ed 39 bc 8b 03 a7 3a
       0.0010386615 0.124404766 -0.011348112 0.0012742145
000310 80 08 a9 bb e2 62 d0 bc 92 61 f7 3d 77 e7 a6 bb
       -0.005158484 -0.025437776 0.12079157 -0.0050935107
000320 16 c6 f7 39 99 63 56 39 02 a1 40 3a af bc a3 b8
       0.00047259097 0.00020445733 0.0007348211 -7.807591e-05
000330 57 86 4c 3c a1 22 68 b8 c9 b3 a6 bd bd f3 89 39
       0.012483201 -5.534536e-05 -0.0813976 0.00026312275
000340 aa 01 26 b9 fe 53 ab ba 12 79 71 39 cc d7 99 3d
       -0.00015831614 -0.0013071296 0.00023028653 0.07511863
000350 84 32 07 bd c5 f3 e5 3c fd 50 4c bd 3d ba 19 3b
       -0.03300716 0.02807034 -0.049881924 0.0023456954
000360 ea 4b 09 3d fa a9 99 bc d8 9e 2e 39 d0 9a e6 3b
       0.033519663 -0.018757809 0.00016653107 0.007037498
000370 d5 39 f3 bd fa 29 e7 3d be c3 30 3b b5 84 0d bc
       -0.11876265 0.11287303 0.002697214 -0.008637597
000380 55 8f c5 38 98 1b 73 ba 01 6f b1 3b 54 1f 15 ba
       9.42039e-05 -0.0009273826 0.005414844 -0.0005688567
000390 a1 ef 07 ba b8 52 e7 3b 43 e6 f6 39 b0 a6 6e ba
       -0.0005185549 0.0070594214 0.00047092335 -0.0009103818
0003a0 f4 d4 0d 3a 9c 93 fe b8 15 ce 2f ba 49 ce 2f 3b
       0.00054104556 -0.00012139158 -0.0006706429 0.0026825836
0003b0 5d 0d 0c ba 69 7e 9c 36 58 41 b2 3a 48 86 e5 b8
       -0.00053425675 4.6638784e-06 0.0013599796 -0.00010944583
0003c0 f2 8d b5 38 d5 80 ad 3a 27 ee e8 b8 83 96 60 ba
       8.657192e-05 0.0013237247 -0.000111069814 -0.000856735
0003d0 25 25 a5 3b 8a a7 4a bb 57 f3 94 38 29 01 c6 b8
       0.0050398284 -0.0030922615 7.1025155e-05 -9.441592e-05
0003e0 26 5c df 39 13 1e e2 3a cc 87 16 37 f6 90 1d bb
       0.0004260253 0.0017251394 8.972314e-06 -0.0024042702
0003f0 52 26 73 b9 4d dc 89 3a 8c 1e 84 3a 10 7c 93 ba
       -0.00023188561 0.0010517925 0.0010079904 -0.0011252183

_rnn.bias_ih_l0 f4 [96]
000000 30 48 c9 39 36 17 6b 3e 1d 95 29 3d ac 3f 68 3a
       0.0003839149 0.22958073 0.04140197 0.00088595855
000010 11 68 59 3c dc 3e 6b 3d a0 ba 01 3e 5d 2f 06 3c
       0.01326944 0.057432994 0.12668848 0.008190003
000020 4f e6 9d bc d5 12 22 39 60 7a 3e 3b 31 69 11 3d
       -0.019274859 0.0001545654 0.002906464 0.03550071
000030 71 18 de 3d 1d 32 1b 35 47 fd fb 3d 20 01 2e 37
       0.108445056 5.7814924e-07 0.12304168 1.037147e-05
000040 c2 29 ab 38 3a af 6c b6 cf b5 f6 38 0a 62 91 3d
       8.1616934e-05 -3.5268736e-06 0.000117640586 0.070987776
000050 76 b3 32 3d 15 f4 82 3d 93 77 77 3d 5a e6 b9 3a
       0.04362818 0.06394211 0.06041677 0.001418303
000060 d7 b7 25 3d 9e 39 19 3c bc 59 f1 37 64 cc 90 3b
       0.040458526 0.009352116 2.8771225e-05 0.0044188965
000070 4a 3e 02 3e 55 f6 d0 3d 3e 4c 82 3b a5 9f af 3d
       0.12719074 0.10203234 0.003976374 0.08575372
000080 db b2 28 b9 42 f1 10 3f 82 d8 d5 bc 0d 99 41 38
       -0.00016088357 0.5661813 -0.026104216 4.6157325e-05
000090 59 82 89 bb df 94 36 bd 35 d4 1e 3f e5 79 9b bb
       -0.004196447 -0.04457557 0.6204255 -0.0047447556
0000a0 6b 51 ac 3d 12 65 9d b7 86 75 6e ba 1e 2e 6f bb
       0.08413967 -1.8762923e-05 -0.0009096492 -0.0036495994
0000b0 1c 4d 11 3e 44 fa f3 b5 5c 9e f1 3e d9 87 c3 b7
       0.14189571 -1.8177748e-06 0.4719113 -2.330907e-05
0000c0 21 da 21 b7 eb 62 bb bb bb e1 bf b7 5e 4b 29 3e
       -9.647135e-06 -0.005718579 -2.2874088e-05 0.16532657
0000d0 5f 66 14 3b 18 a8 63 be c4 bb 4f 3d 21 88 00 b9
       0.0022644026 -0.22232091 0.050716177 -0.00012257743
0000e0 8d cf 0f 3e 18 23 90 3d 22 18 52 33 71 95 b6 bb
       0.14044018 0.070379436 4.8916384e-08 -0.005572014
0000f0 5d f3 17 3f da 25 05 3f d9 1d e3 3a ed 1e 7e 3e
       0.5935572 0.5201088 0.0017327621 0.24816485
000100 72 cd ca bb 1e 32 50 3d 29 0b 25 be d1 45 21 3c
       -0.006189042 0.050829045 -0.16117539 0.009843306
000110 0d 22 1f 3c a2 27 0c be 6b 75 2b 3e 4b 97 67 3c
       0.009712708 -0.13686994 0.1674401 0.014135192
000120 2d 89 51 ba 99 10 32 3c 81 03 20 3d 02 18 a1 bd
       -0.0007993158 0.010868215 0.03906584 -0.07865907
000130 47 c8 9f 3e 1c 77 12 bb ea 4d c3 3d 0e f1 88 3a
       0.31207487 -0.0022348827 0.09536345 0.0010447816
000140 30 c4 be bb 08 2f 64 bd ae b6 10 3c 14 46 e5 3d
       -0.005821727 -0.055708915 0.008832617 0.11195007
000150 46 fa 66 bd 96 4c 76 3e 95 66 7d 3b b4 6b 24 bc
       -0.056391023 0.24052653 0.003866588 -0.010035444
000160 7d 5b 52 bd b8 85 fc bc 8e b5 94 bb 9a 81 4e 3d
       -0.05135678 -0.03082548 -0.0045382446 0.050416566
000170 0f cf 29 be 91 57 73 3e 15 8c 60 bb 76 3c a0 3d
       -0.16582893 0.23763873 -0.0034263183 0.07824032

_rnn.bias_hh_l0 f4 [96]
000000 a3 84 c9 39 63 a7 6a 3e fe 94 29 3d a3 55 68 3a
       0.0003843653 0.22915415 0.041401856 0.00088628585
000010 2b 68 59 3c ff 3a 6b 3d 71 83 01 3e 70 75 05 3c
       0.0132694645 0.05742931 0.12647797 0.008145675
000020 53 ef 8f bc 2a 24 22 39 fd 7a 3e 3b 31 69 11 3d
       -0.017570173 0.00015462996 0.0029065006 0.03550071
000030 ba 05 e1 3d 8b 32 1b 35 19 84 fb 3d 55 db 2d 37
       0.109874204 5.781555e-07 0.12281055 1.0362671e-05
000040 f5 32 ab 38 b4 9f c9 b6 11 ac f6 38 60 4e 91 3d
       8.163407e-05 -6.0088587e-06 0.00011762244 0.07095027
000050 7b d3 32 3d b7 f0 82 3d 81 d5 76 3d bc 45 ba 3a
       0.043658715 0.06393569 0.060262207 0.0014211456
000060 87 e6 21 3d bc d3 14 3c 3a c2 f1 37 d4 cc 90 3b
       0.03952649 0.0090836845 2.8819883e-05 0.0044189487
000070 e2 37 02 3e 85 13 d1 3d 39 6a 82 3b 55 9f af 3d
       0.1271663 0.10208801 0.003979948 0.08575312
000080 5a 55 28 b9 34 65 0b 3f 81 d8 d5 bc 95 77 41 38
       -0.00016053524 0.544513 -0.026104214 4.6126155e-05
000090 7b 95 89 bb 63 95 36 bd 48 c2 1b 3f 30 4f 9c bb
       -0.0041987277 -0.04457606 0.60843325 -0.004770182
0000a0 00 a8 af 3d 3a 4d 9d b7 9c 75 6e ba a5 2e 6f bb
       0.08576965 -1.875182e-05 -0.00090965047 -0.0036496308
0000b0 23 06 13 3e 86 e0 f3 b5 4c 96 f5 3e 76 7d c3 b7
       0.1435781 -1.8170256e-06 0.4796623 -2.3304234e-05
0000c0 f4 e1 21 b7 d2 2d bb bb 16 07 c0 b7 59 7f 29 3e
       -9.648957e-06 -0.0057122493 -2.2891483e-05 0.16552486
0000d0 37 36 21 3b 94 aa 63 be 8b 31 53 3d 92 d3 00 b9
       0.0024598965 -0.22233039 0.05156092 -0.00012285847
0000e0 32 97 0f 3e 40 dd 8f 3d 7f 09 6c 33 6e 95 b6 bb
       0.1402252 0.07024622 5.495667e-08 -0.0055720126
0000f0 b6 54 1e 3f e5 46 05 3f f1 21 dc 3a d3 52 7f 3e
       0.6184801 0.520613 0.0016794783 0.24933939
000100 f0 7f 0d ba 21 b2 01 bd 3c 0d 67 bc 42 78 01 3b
       -0.00053977873 -0.031664018 -0.014102276 0.0019755517
000110 51 a3 10 3a 9d 45 1d bd f5 d5 e1 3d 39 a2 8b bc
       0.00055175 -0.038396467 0.11027137 -0.017045127
000120 52 47 01 be 0d 9c 7b b8 90 42 9b 3b a1 32 67 bc
       -0.12624863 -5.9988397e-05 0.0047381595 -0.014111192
000130 50 0f 18 3e 6a 4a d1 3a ab 42 f0 3d 1f 05 89 ba
       0.14849591 0.0015967612 0.11731466 -0.0010453797
000140 27 96 f7 b9 d9 b8 ac bc 4d 7b 55 3a 7c 5f 4f 3c
       -0.00047223383 -0.021084236 0.00081436784 0.012657043
000150 84 15 f8 3c 9d 36 17 3e 57 25 ca 3c 22 37 eb 3b
       0.030283697 0.14766927 0.024676008 0.007178203
000160 c4 11 cd bd 11 5b ad 3d c5 eb f5 39 e3 5f 58 3c
       -0.10013154 0.08464635 0.00046905703 0.013206455
000170 3c 93 90 bd 60 50 ab 3d ae 9e f2 bb 95 a1 30 3e
       -0.07059333 0.0836494 -0.00740417 0.17249139

_rnn.weight_ih_l0_reverse f4 [96, 16]
000000 3b 39 f4 3c d4 a0 f9 3c 0f d5 b8 ba 0d 8c f2 bc
       0.029812446 0.030472197 -0.0014101582 -0.029607797
000010 aa c6 4e ba c4 10 98 b9 79 3f e7 3c 65 dd 92 bd
       -0.00078878796 -0.0002900419 0.028228508 -0.07171134
000020 33 58 a8 bc 1f a9 b4 bb 2c 38 ff 3c a3 08 83 bc
       -0.02054987 -0.005513325 0.031154715 -0.01599533
000030 6f 97 e8 38 3b a9 b6 bd da 94 d8 3d c0 b8 07 3e
       0.00011090829 -0.08918997 0.10575266 0.1325407
000040 55 90 c4 b5 7d c3 9b b6 92 c2 47 33 e4 f7 b2 35
       -1.4645144e-06 -4.642118e-06 4.651026e-08 1.3334179e-06
000050 02 30 33 b3 09 e8 0a 33 84 2b 0d b6 fb 8f 12 36
       -4.1720348e-08 3.2341664e-08 -2.1035967e-06 2.1839503e-06
000060 4a 1e a0 35 65 a1 43 34 89 f3 14 b6 98 21 7f 34
       1.1929744e-06 1.8219505e-07 -2.2195475e-06 2.3760947e-07
000070 be 30 0a 33 cc 65 d3 34 ae e1 b9 b5 5c 75 e4 b5
       3.217496e-08 3.937588e-07 -1.3849256e-06 -1.702148e-06
000080 92 f3 63 3a 15 c6 51 3d 73 8a 15 b8 85 b3 03 bc
       0.00086956576 0.051214296 -3.565331e-05 -0.008038406
000090 fe 57 04 38 b4 cb ab b8 f9 2f 50 3c 3a f7 4f bc
       3.15532e-05 -8.191858e-05 0.01270675 -0.012693221
0000a0 3c c5 a1 bb 3a 10 be 38 3a a9 72 3c 44 7d 53 3b
       -0.0049368422 9.0629284e-05 0.014810855 0.003227071
0000b0 ee a5 d0 b9 21 27 ea 3c da 89 c0 bc a3 e2 04 bb
       -0.0003979648 0.028583111 -0.023503233 -0.0020276688
0000c0 43 db b4 b5 7e c9 35 b6 a7 d7 52 33 b2 52 eb 34
       -1.3474859e-06 -2.7088386e-06 4.909057e-08 4.383233e-07
0000d0 95 03 eb 33 64 93 e5 32 b9 b8 18 b6 e2 8a ae 34
       1.0943692e-07 2.6726134e-08 -2.2757288e-06 3.2511076e-07
0000e0 cb c7 6a 35 b7 10 78 34 4b c5 d4 b5 cb 94 5e 34
       8.746253e-07 2.310288e-07 -1.5852651e-06 2.0729492e-07
0000f0 f2 a3 90 33 7c 12 bb 35 ec 61 49 b5 1e 6d b5 b5
       6.735344e-08 1.3937965e-06 -7.502083e-07 -1.3517308e-06
000100 aa 35 31 bd 33 d4 38 3c 89 5f eb 3a 62 e7 e6 bc
       -0.04326407 0.011281061 0.0017957549 -0.028186504
000110 d1 2f 0a 3b 0d 73 55 3a fd f6 20 bd 3a d4 63 bd
       0.002108563 0.0008142449 -0.039298046 -0.055622317
000120 b1 eb 39 3c ae 12 0a 3c 55 32 d1 3c 5a c0 70 3c
       0.011347697 0.008427305 0.025536695 0.014694298
000130 46 56 b9 3a 35 78 3d bd ce a4 b6 3d 6c ff 9d 3c
       0.0014140091 -0.046257216 0.08918153 0.019286834
000140 ea 1b 67 36 92 7a a0 b6 45 a7 29 b4 f3 8d 20 36
       3.443793e-06 -4.7826406e-06 -1.5800204e-07 2.3924483e-06
000150 28 1b e1 34 2d 71 6b b3 33 1e 35 33 e6 6e a8 36
       4.1929275e-07 -5.4818134e-08 4.2169813e-08 5.0197004e-06
000160 fb 12 c4 b4 38 81 f0 b4 5e 01 4d b6 2c 11 90 b5
       -3.6521655e-07 -4.4797503e-07 -3.0548176e-06 -1.0733834e-06
000170 3a 6d 95 b3 12 9c 63 37 01 fc c0 b6 9c e1 36 36
       -6.9582214e-08 1.3566592e-05 -5.751383e-06 2.7251435e-06
000180 7e 6d 8d b5 18 32 05 37 76 46 e2 31 8b 21 b5 36
       -1.0537185e-06 7.939081e-06 6.585476e-09 5.3981253e-06
000190 b1 0f 1b 34 65 5b 5b 33 96 d7 b5 35 3e 36 8d 37
       1.4441208e-07 5.1073034e-08 1.3548295e-06 1.6833768e-05
0001a0 42 83 ad 35 d4 8a 26 35 63 ff 3a b6 69 cb 2c 36
       1.2927705e-06 6.204184e-07 -2.7864814e-06 2.5748398e-06
0001b0 a5 b5 e0 b4 31 61 54 38 09 fb e2 b7 73 a0 50 b6
       -4.1855415e-07 5.0635255e-05 -2.7058197e-05 -3.108781e-06
0001c0 d0 17 11 bd d7 09 81 3c 14 db a4 3a 07 3e 0a bc
       -0.0354231 0.015751762 0.0012577497 -0.00843764
0001d0 64 81 68 3b bb 8d f9 39 08 03 ba bc fe 4a 76 3b
       0.0035477513 0.00047598578 -0.022706524 0.003758132
0001e0 b2 eb 98 3c 25 de d3 3b 9c 71 c6 3b 40 07 80 3c
       0.018667076 0.0064656907 0.0060560238 0.015628457
0001f0 b1 8d 0a 3a 39 f7 b7 3d 15 58 52 bd 2c 7c c1 bc
       0.0005285396 0.08982701 -0.051353533 -0.02361878
000200 30 25 9f bb 51 b2 a5 3c 0f 98 76 39 d3 12 63 bb
       -0.004856728 0.02022663 0.00023517034 -0.0034648671
000210 1c 69 1f 3a dd 26 ab 38 c1 fe 3b bb 08 2b ae bb
       0.0006081031 8.161154e-05 -0.002868578 -0.0053151883
000220 12 02 97 3a cf 9b a7 3a 29 1d 97 3b 26 5b 6c 3b
       0.0011521003 0.0012787523 0.0046116305 0.003606507
000230 02 92 98 38 a3 d7 be 3c a1 90 50 bc 80 c9 f8 bb
       7.275121e-05 0.023296183 -0.012729795 -0.00759238
000240 d7 a4 9a bd f7 f2 16 bd 65 e0 2b 3b 8d 90 8f bd
       -0.07550972 -0.036852803 0.002622628 -0.07009993
000250 42 5e 04 3c 3a 2d 93 3a d9 28 1f bd 0f f0 a4 bd
       0.008079113 0.0011228689 -0.038857315 -0.080536
000260 13 ae da 3c 25 9e 5f 3c c2 b0 b0 3d 49 05 d5 3c
       0.026694333 0.013648544 0.08627464 0.026003497
000270 62 2c 08 3b 69 10 0c be b0 b3 71 3e e6 a5 43 3e
       0.0020778407 -0.13678135 0.23603702 0.19106254
000280 20 b5 a2 b5 1b 5c 00 b6 32 13 49 33 94 4a 82 b4
       -1.2122655e-06 -1.9127099e-06 4.6816417e-08 -2.426865e-07
000290 29 fe 2f 34 11 9f c1 32 2e 11 13 b6 b5 2c 94 b5
       1.6390608e-07 2.2540492e-08 -2.1914707e-06 -1.1039871e-06
0002a0 12 28 36 35 65 62 7f 34 6e 3a 46 b5 1c d9 54 34
       6.7858593e-07 2.3784521e-07 -7.3845774e-07 1.9823023e-07
0002b0 6a 2c b3 33 63 7f 95 b5 6a fd b9 35 95 4c fd b4
       8.343416e-08 -1.113844e-06 1.3857327e-06 -4.7180643e-07
0002c0 fc 15 9c b5 aa 3b 98 35 85 b0 53 33 8d 96 7a 34
       -1.1629304e-06 1.1342247e-06 4.928781e-08 2.3337834e-07
0002d0 cf b4 30 33 6a 9a c3 32 98 79 58 b5 ce e7 a0 35
       4.1142638e-08 2.2771207e-08 -8.064321e-07 1.1988393e-06
0002e0 d6 ea 1c 35 21 bf 89 34 77 43 52 b4 eb 5a 2b 35
       5.845626e-07 2.5657303e-07 -1.9582318e-07 6.383477e-07
0002f0 25 7e 81 b2 ba b3 a5 36 4a b1 2f b6 42 7a 80 b5
       -1.507494e-08 4.938306e-06 -2.6180228e-06 -9.572325e-07
000300 cb 65 91 2e dd 18 50 2f 11 20 af 2b 03 14 d5 af
       6.6119187e-11 1.8926323e-10 1.2443398e-12 -3.8758693e-10
000310 80 e2 54 af 33 2f 68 2d 25 01 e5 30 f2 de 57 30
       -1.9361757e-10 1.31981535e-11 1.6662268e-09 7.853337e-10
000320 f8 e3 39 b0 bf 2a 6f 2c 55 0e fc 30 42 f8 34 ac
       -6.762657e-10 3.3987672e-12 1.8339487e-09 -2.571735e-12
000330 30 f9 94 ae 9d 74 53 b0 b6 20 85 31 0c 50 49 31
       -6.7745254e-11 -7.692707e-10 3.8745283e-09 2.929485e-09
000340 74 28 69 b3 5a ed 3e 33 b0 d5 00 31 b0 80 a2 32
       -5.4286332e-08 4.4453692e-08 1.8747919e-09 1.8917802e-08
000350 41 45 d8 b1 5e 2e 8d 30 d8 c6 98 b1 88 95 62 33
       -6.2943006e-09 1.0272279e-09 -4.446388e-09 5.2755723e-08
000360 55 60 94 32 ef aa fc 31 a6 4c 8b b2 a0 2b c5 32
       1.7273274e-08 7.353598e-09 -1.6216585e-08 2.2953657e-08
000370 66 a5 d2 b0 e1 27 bb 33 91 f0 e3 b3 bf c0 7a b3
       -1.532652e-09 8.71512e-08 -1.061427e-07 -5.8382962e-08
000380 4a 06 3e 37 ae 6a 1f b7 49 1c 0a b5 bd 02 47 37
       1.1326347e-05 -9.501977e-06 -5.1450166e-07 1.1861962e-05
000390 bb 66 ff 34 36 be 64 b2 79 bd 51 35 61 0a fe 37
       4.7572198e-07 -1.3314596e-08 7.8134286e-07 3.0283993e-05
0003a0 63 b4 3b b6 ed 97 b1 b5 4d 4b 5f b7 a5 ff 6c b6
       -2.797017e-06 -1.3231744e-06 -1.3309368e-05 -3.5315545e-06
0003b0 9a c1 01 b5 28 3a 78 38 e1 f4 0c b8 f5 23 1b 37
       -4.833797e-07 5.918197e-05 -3.3606662e-05 9.247092e-06
0003c0 38 89 5b 3a 19 0c 43 3a f8 bd 0f b8 f1 00 e9 39
       0.0008374634 0.00074404624 -3.427078e-05 0.00044441925
0003d0 6d 01 4a b8 fa 4c 93 b7 d8 65 98 3a 0b 34 62 3a
       -4.816188e-05 -1.755961e-05 0.0011627031 0.0008628971
0003e0 12 c3 b0 b9 ec cf 17 b9 6a b1 3c b8 6b 06 27 b9
       -0.00033714675 -0.00014477939 -4.4987923e-05 -0.00015928752
0003f0 7e bc 50 b8 93 2a f3 3a 39 a1 dc ba 01 a1 c0 b8
       -4.976661e-05 0.0018552117 -0.0016832716 -9.185263e-05

_rnn.weight_hh_l0_reverse f4 [96, 32]
000000 87 77 13 3e 05 5e 7d ba b1 27 5c be dc c7 07 ba
       0.14401065 -0.0009665194 -0.21499516 -0.00051796227
000010 41 10 72 3d a7 3c 2f 3b 64 48 a8 bb 3c 1c e0 bc
       0.059097532 0.0026739032 -0.0051355828 -0.027357213
000020 01 e9 c8 bd 10 de 1f be 89 fa c4 38 f1 db 81 3a
       -0.09810067 -0.15612054 9.392674e-05 0.0009907467
000030 d2 f1 37 37 c6 a3 66 b9 7e a9 a9 bb 31 db 36 3d
       1.0963953e-05 -0.0002199552 -0.0051776757 0.04464263
000040 8f e5 5a bd 02 32 93 3d 89 a8 3a be 57 8a 76 bd
       -0.05344158 0.071872726 -0.18228354 -0.060190525
000050 59 27 6c 3d 64 d3 11 bb 23 7f 36 bb e4 68 97 3b
       0.057654712 -0.0022251243 -0.0027846775 0.0046206582
000060 da 52 c2 bc 46 d1 23 39 28 f0 61 bc 4b 69 9f 3b
       -0.023721147 0.00015622852 -0.013790168 0.004864847
000070 c2 c9 09 3a 88 3e 5a 3b 54 96 b2 3c f8 ad f5 3a
       0.00052561995 0.0033301432 0.021800198 0.0018743863
000080 9e 57 02 36 58 b1 f6 b1 2f 61 c6 35 8c b2 95 b2
       1.942251e-06 -7.179704e-09 1.4780434e-06 -1.7427077e-08
000090 11 e8 75 b5 5e 44 6b b3 f9 d0 98 33 4b 02 f4 b5
       -9.1607313e-07 -5.477738e-08 7.1160635e-08 -1.8180084e-06
0000a0 75 50 94 34 d1 be 12 35 e1 4e 7c 32 8a d6 ac b2
       2.7625688e-07 5.466691e-07 1.46862655e-08 -2.0120996e-08
0000b0 77 a7 9e b0 33 d6 c8 af c0 92 09 34 f5 0c b9 b2
       -1.1543609e-09 -3.6531986e-10 1.2812507e-07 -2.1542727e-08
0000c0 5a 77 57 b2 f4 11 05 b5 e2 8d b8 36 ad d0 cd 34
       -1.25417845e-08 -4.9572486e-07 5.5001447e-06 3.8336057e-07
0000d0 6c d3 df b5 0e f9 6f 32 0c dd 21 33 4a 20 b5 b3
       -1.6676327e-06 1.3968259e-08 3.7686775e-08 -8.434343e-08
0000e0 ba cc 88 33 ca f7 51 33 9f 66 7d 34 53 e6 51 b3
       6.370233e-08 4.8886967e-08 2.3599794e-07 -4.8871083e-08
0000f0 86 13 50 b1 f9 c5 f3 b2 f6 c6 e4 b3 cd 37 ec b2
       -3.0279081e-09 -2.837895e-08 -1.0653268e-07 -2.7499391e-08
000100 1b ac 03 3d ab 68 fa 38 ae 10 16 bc 11 af 01 39
       0.032146554 0.00011940425 -0.00915925 0.00012367616
000110 e8 e6 e2 3c 47 a5 82 38 b3 86 8c b8 d7 d9 04 3c
       0.027697995 6.229668e-05 -6.70081e-05 0.008108578
000120 5c a6 56 bc 37 6f fe bc 81 fe 3d b9 fd 11 65 38
       -0.013101187 -0.03105889 -0.00018119255 5.4614608e-05
000130 45 ec 55 36 5a 6e dc 37 f7 61 0b ba 2d 68 13 bb
       3.1877e-06 2.627743e-05 -0.0005317027 -0.0022492514
000140 77 07 54 bb 6d 1b 20 3d 49 c2 cb 3c d3 7d c2 3b
       -0.0032353082 0.039088655 0.024872916 0.0059354096
000150 76 0e c8 3c d5 fb 93 39 74 42 30 b9 92 fa 84 ba
       0.024420958 0.00028225654 -0.00016809424 -0.0010145477
000160 45 cb 6c b9 c6 57 e1 b9 15 57 e6 3a 52 83 9d 38
       -0.00022582438 -0.0004298074 0.001757356 7.510804e-05
000170 96 82 c4 b8 5c 65 8a b9 a5 20 5c bb 0b 06 ab 36
       -9.370332e-05 -0.0002639693 -0.0033588794 5.0969006e-06
000180 86 80 a5 33 a4 58 73 31 78 93 39 36 28 07 68 b2
       7.7067895e-08 3.541154e-09 2.7652986e-06 -1.35058045e-08
000190 d7 6d b7 b5 94 91 28 b3 a7 72 ad 33 72 f3 70 b5
       -1.366653e-06 -3.924795e-08 8.0767954e-08 -8.9761227e-07
0001a0 75 e5 9f 35 ef 59 88 35 29 84 68 32 24 e0 81 b2
       1.1913204e-06 1.0158964e-06 1.3534227e-08 -1.5119504e-08
0001b0 56 b0 48 b0 33 22 c6 2d ee 0e ce 33 a1 34 f5 b3
       -7.3010165e-10 2.2525181e-11 9.595338e-08 -1.1418275e-07
0001c0 72 91 d9 34 8a 2b 8e 34 73 5f 40 35 58 10 14 35
       4.0525225e-07 2.648124e-07 7.166447e-07 5.515808e-07
0001d0 97 c3 33 b6 2d 4a ed 31 3f 2e 5f 33 0c f2 ad b3
       -2.6786927e-06 6.9060406e-09 5.1963294e-08 -8.099968e-08
0001e0 b1 aa 17 34 bc ec e7 32 a6 ad 58 34 66 72 3b b3
       1.4125068e-07 2.6999594e-08 2.017974e-07 -4.3643375e-08
0001f0 1c a7 93 b1 07 a6 10 b3 50 69 55 b4 7f 57 06 b3
       -4.297261e-09 -3.3678614e-08 -1.9875483e-07 -3.1278883e-08
000200 a6 f8 07 3d 00 ed 52 b7 16 66 1d bd 0c a6 73 38
       0.033196114 -1.2572156e-05 -0.038427435 5.8090358e-05
000210 e1 b3 0c 3d 9e f4 54 3a 6d 17 bb ba 69 e7 bf bb
       0.034351233 0.0008123609 -0.0014273949 -0.0058564437
000220 77 40 00 bd 82 f4 72 bd d2 07 18 b9 31 45 bb 39
       -0.03131148 -0.059315212 -0.00014498763 0.0003571897
000230 57 d3 b7 36 67 24 66 b7 4b 5e 0d bb 55 63 3d 3c
       5.478428e-06 -1.3717544e-05 -0.0021571096 0.011559327
000240 3f 0b 98 bc cd d5 1e 3d db 1b 88 bd 93 6f a1 bb
       -0.01856005 0.038778115 -0.06645938 -0.0049266308
000250 55 70 9b 3c 15 b6 3e b9 7d 46 6d ba 12 3d 44 ba
       0.018974463 -0.00018187643 -0.0009051336 -0.0007485907
000260 88 04 f2 bb f9 a9 13 ba 06 f8 2b ba ad be e2 3a
       -0.007385794 -0.0005632933 -0.00065600907 0.0017299257
000270 8a e2 c0 37 91 36 f2 39 42 17 c8 3a 74 28 fa 39
       2.2993674e-05 0.00046198492 0.001526572 0.00047713856
000280 8f 14 43 37 6e 85 f9 30 79 b5 28 36 29 49 52 32
       1.1627692e-05 1.8155057e-09 2.5139582e-06 1.22402435e-08
000290 2a fb 9f 36 8d 9b cb b2 8f cf a7 33 22 7e 63 36
       4.7678086e-06 -2.3703047e-08 7.814298e-08 3.3899055e-06
0002a0 b6 85 e8 b5 4f d2 91 b7 f9 46 86 b2 8b 99 cc b0
       -1.7324262e-06 -1.738328e-05 -1.5631928e-08 -1.4886593e-09
0002b0 1c d8 29 31 95 23 12 32 41 31 ae b3 ef d7 e7 b5
       2.471558e-09 8.506409e-09 -8.1114656e-08 -1.7273686e-06
0002c0 1a b7 70 b4 03 2c 0e 37 86 44 e0 b6 bf 77 52 36
       -2.2418354e-07 8.474107e-06 -6.6836974e-06 3.136214e-06
0002d0 bc ef 06 37 2b 18 54 33 d8 bc 1c 34 02 4f d0 b4
       8.04284e-06 4.9382077e-08 1.4597333e-07 -3.8800505e-07
0002e0 40 29 35 35 f2 4b 0b b4 ef fc 75 35 f4 86 4a b4
       6.748778e-07 -1.2973013e-07 9.163768e-07 -1.8861812e-07
0002f0 c4 47 02 b3 03 42 f3 b3 51 63 b9 b5 25 d6 28 b3
       -3.0333254e-08 -1.1327577e-07 -1.3812479e-06 -3.931031e-08
000300 c8 85 f8 37 f9 64 52 34 24 59 a5 37 17 e8 fa 33
       2.96262e-05 1.9594508e-07 1.9711042e-05 1.1683749e-07
000310 8c 38 ad 37 3c a3 b6 b4 02 9e 3e 35 be dd 2b 37
       2.0649539e-05 -3.401891e-07 7.101045e-07 1.0244023e-05
000320 df 55 1f b6 90 52 42 b8 b9 ab f0 b3 c0 71 ec b3
       -2.374283e-06 -4.6330097e-05 -1.1207107e-07 -1.10102974e-07
000330 e1 76 01 31 17 3d 60 33 ef dc 18 35 d0 78 2b b7
       1.8839545e-09 5.2209625e-08 5.6945913e-07 -1.0220523e-05
000340 a1 68 25 35 18 32 14 38 3f 60 1b b7 b1 08 90 37
       6.1619545e-07 3.5332603e-05 -9.261129e-06 1.7170185e-05
000350 3e 7a c2 37 b6 b9 00 35 0c 82 00 35 89 85 0a b6
       2.3183526e-05 4.795396e-07 4.787296e-07 -2.064133e-06
000360 bd ee 80 36 8c 6a d7 b4 d1 1e 9d 36 84 dd 65 b5
       3.84249e-06 -4.0124394e-07 4.682552e-06 -8.5631495e-07
000370 11 e6 2f b4 9d e2 3f b5 ec de ff b6 e4 81 ab b4
       -1.6381843e-07 -7.148281e-07 -7.6255437e-06 -3.194574e-07
000380 9a 21 aa 3c cd 94 3a b8 90 ed a8 bc c7 85 ba 38
       0.020767976 -4.4484437e-05 -0.020621091 8.894089e-05
000390 1d 78 f7 3c 1a ec b7 39 73 c9 16 ba eb fc d2 3c
       0.030208642 0.0003508039 -0.0005752064 0.025755366
0003a0 21 03 97 bc 70 0c 2b bd 32 63 02 b9 19 7d 5f 39
       -0.01843411 -0.04175991 -0.00012434719 0.0002131354
0003b0 b8 12 98 37 3a f6 a9 37 dc 2c c1 ba 72 08 9d bb
       1.8128529e-05 2.0261028e-05 -0.00147381 -0.0047922665
0003c0 73 1b b0 bb d6 3e 41 3d d8 f7 49 bd 37 b9 0e 3c
       -0.005374366 0.047179066 -0.049308628 0.008711151
0003d0 be 4d 1c 3d cf 52 6a 38 69 39 95 39 f9 a2 7b ba
       0.03816008 5.586707e-05 0.00028462269 -0.0009599175
0003e0 00 8d 3e 3a 2c 52 65 ba 90 08 b9 3a 72 55 70 b9
       0.00072689354 -0.00087479013 0.0014116932 -0.00022920014
0003f0 c6 67 c8 b8 ca f5 15 b9 31 04 9f bb c4 19 d7 38
       -9.5560725e-05 -0.00014301311 -0.0048527946 0.00010256798

_rnn.bias_ih_l0_reverse f4 [96]
000000 c4 51 4a 3e 66 f1 16 37 0a ca 0c 3c 8b 30 00 37
       0.19757754 8.996902e-06 0.008593092 7.640697e-06
000010 e3 80 20 3e 5c 10 ac 37 9b 5c 85 38 12 8e b0 3d
       0.15674166 2.0511616e-05 6.359183e-05 0.08620848
000020 7a f8 85 3c f7 db 8c 3e 6d 13 cc 36 31 ea 82 36
       0.016353834 0.2751157 6.081935e-06 3.9015654e-06
000030 bf 37 bf 31 9d af 53 34 40 7b 01 39 d2 ce 72 3b
       5.565169e-09 1.9714794e-07 0.00012348313 0.0037049544
000040 34 f0 a1 3b 48 80 5a 3d 94 bd d9 3e 46 36 39 3c
       0.0049419645 0.053344995 0.4252745 0.011304444
000050 f8 88 37 3e c8 67 c3 37 52 6e 98 38 f6 75 d8 38
       0.17923343 2.3294138e-05 7.2684736e-05 0.000103216546
000060 0d 04 7f 3a 6c 2e 3d 37 c0 0b 2d 3a de 1b 00 39
       0.00097280816 1.1276086e-05 0.0006601177 0.00012217413
000070 cc 77 1b 35 b6 70 15 38 bf 00 bd 3a 8b 8b 0f 37
       5.7916327e-07 3.562934e-05 0.0014419778 8.555954e-06
000080 f1 8e 67 3f 9c fc de b7 74 d0 15 be cf f9 87 b7
       0.90452486 -2.6582093e-05 -0.146303 -1.620958e-05
000090 17 b6 5a be 7f d8 e8 b7 23 63 9f b8 7f 19 cb be
       -0.21358524 -2.7757369e-05 -7.6001765e-05 -0.3966789
0000a0 88 25 05 be 8e 75 16 3f d3 da 8d b7 85 2c 3b b6
       -0.13002598 0.58773124 -1.6910408e-05 -2.7891085e-06
0000b0 a6 b8 68 b2 ba 9d 74 b5 0c 0e 5f b8 8b ac 35 bc
       -1.35461615e-08 -9.1126606e-07 -5.3180425e-05 -0.011088501
0000c0 b7 44 84 bc b9 9a ad be 53 9f 78 3e 52 f9 40 bd
       -0.016146047 -0.33907107 0.24279527 -0.04711277
0000d0 fe b9 e9 3d 66 8d 95 b8 24 9f cc b8 d2 da 38 ba
       0.11412428 -7.131211e-05 -9.75712e-05 -0.000705165
0000e0 1d f4 73 ba 42 2d 4a b8 5f 7e 6d bb 90 fc ea b9
       -0.000930609 -4.8202703e-05 -0.0036238653 -0.00044820132
0000f0 41 36 93 b6 3b db 83 b8 9f 8b 16 bc 75 f8 08 b7
       -4.3872574e-06 -6.2874016e-05 -0.009188562 -8.16408e-06
000100 94 5b 20 3e b4 4b 4e ba a3 a0 98 be 68 50 35 ba
       0.15659934 -0.0007869557 -0.29810056 -0.00069165835
000110 82 96 b7 3d 12 fd bb 39 a3 cb 5d bb 52 ce 45 bc
       0.08964254 0.00035855972 -0.00338433 -0.012073116
000120 59 c1 1b be f5 b0 49 be 22 9b f2 39 3a 35 a4 3a
       -0.15210475 -0.1969641 0.0004627342 0.001252807
000130 fb 1a c8 b7 32 5d 02 b9 6f 06 5a bb f1 86 f7 3c
       -2.3854422e-05 -0.00012432484 -0.0033267995 0.030215712
000140 a1 89 a7 bd 6d 50 c6 3d e0 f5 46 be fa a5 0d 3c
       -0.081805475 0.09683309 -0.19429731 0.008645529
000150 4d 31 f3 3c 06 43 28 b9 94 bb b0 39 8f 34 28 bc
       0.029686594 -0.00016046697 0.00033709093 -0.010266437
000160 2b c2 a4 bc 95 f3 5e ba 50 3c 37 3c d0 38 41 3b
       -0.020112118 -0.00085049245 0.011183813 0.0029483326
000170 70 54 99 39 d9 6b 03 3a 0e 6c e8 bb d0 a4 1d 38
       0.00029245345 0.0005013324 -0.0070929592 3.758521e-05

_rnn.bias_hh_l0_reverse f4 [96]
000000 27 b9 49 3e 19 98 17 37 0a ca 0c 3c 43 19 00 37
       0.19699536 9.035714e-06 0.008593092 7.635276e-06
000010 4e 80 20 3e 2e 20 ac 37 9b 68 85 38 10 8e b0 3d
       0.15673944 2.0518983e-05 6.3614185e-05 0.08620846
000020 ee f8 85 3c 01 07 8d 3e e4 1f cc 36 eb f3 82 36
       0.01635405 0.27544406 6.0833863e-06 3.9026977e-06
000030 50 60 bf 31 3d 4a 53 34 47 8a 01 39 ab cb 72 3b
       5.569781e-09 1.9677914e-07 0.00012353911 0.0037047665
000040 cf 08 a2 3b 90 7e 5a 3d 87 bd d9 3e 9b 30 39 3c
       0.0049448977 0.053343356 0.4252741 0.011303092
000050 2d 85 37 3e 33 4a c3 37 c2 1d 98 38 1b b2 d8 38
       0.17921896 2.3280363e-05 7.2534676e-05 0.00010332857
000060 1b 03 7f 3a 04 94 3e 37 c1 09 2d 3a fd 1a 00 39
       0.0009727941 1.1359345e-05 0.000660088 0.00012217085
000070 57 68 1b 35 10 93 14 38 35 05 bd 3a 5a 7c 0f 37
       5.7893834e-07 3.5422912e-05 0.0014421107 8.552417e-06
000080 52 4c 68 3f 74 f8 de b7 76 d0 15 be ec ef 87 b7
       0.90741456 -2.6580157e-05 -0.14630303 -1.6204976e-05
000090 3b b5 5a be 7e d8 e8 b7 28 89 9f b8 7f 19 cb be
       -0.21358196 -2.7757367e-05 -7.607258e-05 -0.3966789
0000a0 91 25 05 be e2 e1 14 3f 86 d4 8d b7 9a 3e 3b b6
       -0.13002612 0.5815717 -1.6907474e-05 -2.790161e-06
0000b0 5a bd 68 b2 42 92 74 b5 a2 0d 5f b8 1c bc 35 bc
       -1.3547231e-08 -9.1109916e-07 -5.318004e-05 -0.011092212
0000c0 31 44 84 bc 8f 9a ad be 30 15 72 3e 63 f9 40 bd
       -0.016145797 -0.3390698 0.23640895 -0.047112834
0000d0 a5 89 ea 3d 27 82 95 b8 58 9f cc b8 e5 da 38 ba
       0.11452035 -7.1291164e-05 -9.757158e-05 -0.0007051661
0000e0 7a c4 73 ba 8c 3a 4a b8 5f 7e 6d bb 80 ff ea b9
       -0.00092989916 -4.821508e-05 -0.0036238653 -0.0004482232
0000f0 28 3a 93 b6 30 a0 83 b8 9b 8d 16 bc ee f7 08 b7
       -4.3877117e-06 -6.276404e-05 -0.009189035 -8.163957e-06
000100 93 53 b6 3d fb 01 cd b9 0a 80 cd bd 70 61 44 b9
       0.08902659 -0.00039102123 -0.10034187 -0.00018728315
000110 ff bb c3 3b df af 00 3a 5d e0 a7 b8 26 cb b1 bc
       0.0059733386 0.00049090193 -8.0049715e-05 -0.021703314
000120 66 99 37 bd 7a 6e b3 bd e9 68 fb 37 21 5a 87 ba
       -0.044824027 -0.08761306 2.9970384e-05 -0.0010326543
000130 49 78 8d 38 a1 dd de 38 5a b3 36 ba 09 97 81 3b
       6.745809e-05 0.000106270665 -0.00069694745 0.0039547724
000140 d9 7d f0 bb 95 8d 42 3d 16 6c 23 be 45 8e dd 3a
       -0.007339221 0.047498304 -0.159592 0.0016903362
000150 2c 5a 82 bd bc 8f b1 b9 d0 7a 99 ba 6f 24 a9 3b
       -0.06364855 -0.0003386716 -0.0011709575 0.005161814
000160 8c 7b a4 bb c9 78 cd b8 ae b9 ab bb 65 6b 24 bb
       -0.0050196107 -9.79766e-05 -0.0052406406 -0.0025088426
000170 cc 7e 34 ba 5f 7d d1 39 e2 d5 1c ba fc db ab 3a
       -0.0006885349 0.00039956995 -0.0005982799 0.0013111825
